fast_sampling/weights/3dcddpm_params.pth (torch, 1728 bytes, 1 tensors)

betas f4 [250]
0	0x394bb4a2	0.0001942688
1	0x398e9976	0.00027198688
2	0x39b75aa2	0.00034972007
3	0x39e01ea5	0.0004274744
4	0x3a047327	0.00050525594
5	0x3a18d937	0.00058307074
6	0x3a2d41eb	0.0006609249
7	0x3a41adab	0.0007388244
8	0x3a561ce0	0.0008167755
9	0x3a6a8ff4	0.0008947842
10	0x3a7f074f	0.0009728567
11	0x3a89c1ad	0.001050999
12	0x3a940241	0.0011292176
13	0x3a9e4598	0.0012075184
14	0x3aa88be7	0.0012859077
15	0x3ab2d563	0.0013643916
16	0x3abd2244	0.0014429768
17	0x3ac772c0	0.0015216693
18	0x3ad1c70c	0.0016004755
19	0x3adc1f5f	0.0016794017
20	0x3ae67bf2	0.0017584546
21	0x3af0dcfb	0.0018376404
22	0x3afb42b2	0.0019169657
23	0x3b02d6a8	0.001996437
24	0x3b080e86	0.002076061
25	0x3b0d4910	0.0021558441
26	0x3b128663	0.0022357933
27	0x3b17c69c	0.0023159152
28	0x3b1d09d9	0.0023962168
29	0x3b225035	0.0024767045
30	0x3b2799d0	0.0025573857
31	0x3b2ce6c8	0.0026382674
32	0x3b32373a	0.0027193562
33	0x3b378b45	0.0028006595
34	0x3b3ce309	0.0028821847
35	0x3b423ea4	0.0029639388
36	0x3b479e35	0.003045929
37	0x3b4d01de	0.003128163
38	0x3b5269be	0.0032106484
39	0x3b57d5f5	0.0032933925
40	0x3b5d46a5	0.0033764031
41	0x3b62bbef	0.003459688
42	0x3b6835f5	0.0035432552
43	0x3b6db4d9	0.0036271124
44	0x3b7338bd	0.0037112676
45	0x3b78c1c6	0.0037957295
46	0x3b7e5015	0.0038805057
47	0x3b81f1e8	0.003965605
48	0x3b84be8d	0.0040510357
49	0x3b878e0d	0.004136807
50	0x3b8a607a	0.0042229267
51	0x3b8d35e7	0.004309404
52	0x3b900e68	0.0043962486
53	0x3b92ea10	0.004483469
54	0x3b95c8f3	0.004571074
55	0x3b98ab25	0.004659074
56	0x3b9b90bb	0.004747478
57	0x3b9e79ca	0.0048362957
58	0x3ba16666	0.004925537
59	0x3ba456a6	0.005015212
60	0x3ba74a9f	0.005105331
61	0x3baa4267	0.005195904
62	0x3bad3e16	0.0052869422
63	0x3bb03dc1	0.0053784554
64	0x3bb34181	0.005470455
65	0x3bb6496e	0.0055629527
66	0x3bb9559f	0.005655959
67	0x3bbc662d	0.005749485
68	0x3bbf7b32	0.0058435434
69	0x3bc294c6	0.0059381453
70	0x3bc5b305	0.0060333037
71	0x3bc8d609	0.0061290306
72	0x3bcbfdec	0.006225338
73	0x3bcf2aca	0.0063222395
74	0x3bd25cc1	0.0064197485
75	0x3bd593eb	0.0065178773
76	0x3bd8d067	0.0066166404
77	0x3bdc1253	0.0067160516
78	0x3bdf59cc	0.0068161245
79	0x3be2a6f2	0.006916874
80	0x3be5f9e5	0.007018315
81	0x3be952c6	0.007120463
82	0x3becb1b5	0.0072233328
83	0x3bf016d4	0.00732694
84	0x3bf38245	0.007431301
85	0x3bf6f42d	0.0075364322
86	0x3bfa6cb0	0.007642351
87	0x3bfdebf1	0.0077490737
88	0x3c00b90c	0.007856619
89	0x3c027fa5	0.007965003
90	0x3c0449d7	0.008074245
91	0x3c0617b8	0.008184366
92	0x3c07e95a	0.008295381
93	0x3c09bed5	0.008407314
94	0x3c0b983c	0.008520182
95	0x3c0d75a7	0.008634008
96	0x3c0f572d	0.008748812
97	0x3c113ce4	0.008864615
98	0x3c1326e4	0.00898144
99	0x3c151547	0.009099311
100	0x3c170824	0.0092182495
101	0x3c18ff96	0.00933828
102	0x3c1afbb7	0.009459428
103	0x3c1cfca2	0.009581717
104	0x3c1f0273	0.009705174
105	0x3c210d47	0.009829826
106	0x3c231d3a	0.009955699
107	0x3c25326b	0.010082821
108	0x3c274cf8	0.010211222
109	0x3c296d02	0.010340931
110	0x3c2b92a8	0.010471977
111	0x3c2dbe0d	0.010604394
112	0x3c2fef52	0.010738211
113	0x3c32269b	0.010873462
114	0x3c34640d	0.011010182
115	0x3c36a7cc	0.011148404
116	0x3c38f1ff	0.011288165
117	0x3c3b42cf	0.011429503
118	0x3c3d9a63	0.011572453
119	0x3c3ff8e5	0.011717056
120	0x3c425e81	0.011863352
121	0x3c44cb64	0.012011383
122	0x3c473fbb	0.012161191
123	0x3c49bbb5	0.012312819
124	0x3c4c3f83	0.012466314
125	0x3c4ecb58	0.012621723
126	0x3c515f68	0.012779094
127	0x3c53fbe7	0.012938476
128	0x3c56a10e	0.013099922
129	0x3c594f15	0.0132634835
130	0x3c5c0637	0.013429216
131	0x3c5ec6b0	0.0135971755
132	0x3c6190c1	0.013767422
133	0x3c6464a9	0.013940015
134	0x3c6742ac	0.014115017
135	0x3c6a2b10	0.014292493
136	0x3c6d1e1b	0.01447251
137	0x3c701c1a	0.014655137
138	0x3c732557	0.0148404455
139	0x3c763a24	0.01502851
140	0x3c795ad3	0.015219408
141	0x3c7c87b9	0.015413218
142	0x3c7fc12f	0.015610023
143	0x3c8183c9	0.01580991
144	0x3c832d9f	0.016012965
145	0x3c84de4d	0.016219283
146	0x3c869605	0.016428957
147	0x3c8854fd	0.016642088
148	0x3c8a1b6c	0.016858779
149	0x3c8be98c	0.017079137
150	0x3c8dbf98	0.017303273
151	0x3c8f9dcf	0.017531304
152	0x3c918472	0.01776335
153	0x3c9373c3	0.017999535
154	0x3c956c0a	0.018239994
155	0x3c976d8e	0.018484857
156	0x3c99789d	0.01873427
157	0x3c9b8d85	0.01898838
158	0x3c9dac9a	0.019247342
159	0x3c9fd632	0.019511316
160	0x3ca20aa7	0.01978047
161	0x3ca44a57	0.02005498
162	0x3ca695a4	0.020335026
163	0x3ca8ecf7	0.020620806
164	0x3cab50ba	0.020912517
165	0x3cadc15e	0.021210369
166	0x3cb03f5a	0.021514583
167	0x3cb2cb28	0.021825388
168	0x3cb5654b	0.022143027
169	0x3cb80e4b	0.022467753
170	0x3cbac6b6	0.02279983
171	0x3cbd8f22	0.02313954
172	0x3cc0682d	0.023487175
173	0x3cc3527d	0.023843044
174	0x3cc64ebf	0.024207471
175	0x3cc95dac	0.024580799
176	0x3ccc8005	0.024963388
177	0x3ccfb696	0.025355618
178	0x3cd30235	0.025757888
179	0x3cd663c6	0.026170623
180	0x3cd9dc38	0.026594266
181	0x3cdd6c8b	0.027029296
182	0x3ce115c9	0.027476208
183	0x3ce4d910	0.027935535
184	0x3ce8b78d	0.028407836
185	0x3cecb281	0.028893711
186	0x3cf0cb3e	0.029393788
187	0x3cf5032e	0.029908743
188	0x3cf95bd2	0.030439291
189	0x3cfdd6c2	0.030986194
190	0x3d013ad9	0.031550262
191	0x3d039d3b	0.03213237
192	0x3d06137e	0.032733433
193	0x3d089ead	0.03335445
194	0x3d0b3fe4	0.033996478
195	0x3d0df855	0.034660656
196	0x3d10c948	0.035348207
197	0x3d13b41c	0.036060438
198	0x3d16ba4c	0.03679876
199	0x3d19dd72	0.037564702
200	0x3d1d1f44	0.038359895
201	0x3d2081a0	0.03918612
202	0x3d24068a	0.0400453
203	0x3d27b02f	0.040939506
204	0x3d2b80f0	0.04187101
205	0x3d2f7b5f	0.042842265
206	0x3d33a24d	0.043855954
207	0x3d37f8cb	0.044915
208	0x3d3c8234	0.04602261
209	0x3d414238	0.04718229
210	0x3d463ce0	0.0483979
211	0x3d4b76a2	0.049673684
212	0x3d50f467	0.05101433
213	0x3d56bb9f	0.052425023
214	0x3d5cd254	0.053911522
215	0x3d633f3c	0.055480227
216	0x3d6a09d5	0.057138283
217	0x3d713a80	0.05889368
218	0x3d78daa9	0.060755406
219	0x3d807a76	0.062733576
220	0x3d84caa3	0.064839624
221	0x3d8964ad	0.067086555
222	0x3d8e5056	0.069489166
223	0x3d939684	0.07206443
224	0x3d994173	0.074831866
225	0x3d9f5cf7	0.077814035
226	0x3da5f6d5	0.0810372
227	0x3dad1f26	0.08453207
228	0x3db4e8df	0.08833479
229	0x3dbd6a78	0.09248823
230	0x3dc6bec8	0.097043574
231	0x3dd10625	0.1020625
232	0x3ddc67d9	0.10761995
233	0x3de9141f	0.11380791
234	0x3df746d7	0.120740585
235	0x3e03a59e	0.12856147
236	0x3e0cc095	0.13745339
237	0x3e173256	0.14765295
238	0x3e234c93	0.1594718
239	0x3e317d1e	0.17332885
240	0x3e425b17	0.1898006
241	0x3e56bc42	0.20970252
242	0x3e6fd900	0.23422623
243	0x3e87c5fd	0.2651824
244	0x3e9c64cf	0.3054566
245	0x3eb84824	0.3599254
246	0x3edff951	0.437449
247	0x3f0e3701	0.5555268
248	0x3f3fff5d	0.7499903
249	0x3f7fbe77	0.999
